…
2021-07-30 12:39:57.323853: I tensorflow/core/common_runtime/gpu/gpu_device.cc:1406] Created TensorFlow device (/job:localhost/replica:0/task:0/device:GPU:1 with 37570 MB memory) -> physical GPU (device: 1, name: A100-SXM4-40GB, pci bus id: 0000:00:0b.0, compute capability: 8.0)
Model: "model"
__________________________________________________________________________________________________
Layer (type)                    Output Shape         Param #     Connected to                     
==================================================================================================
deep_input (InputLayer)         [(None, 262)]        0                                            
__________________________________________________________________________________________________
dense (Dense)                   (None, 512)          134656      deep_input[0][0]                 
__________________________________________________________________________________________________
batch_normalization (BatchNorma (None, 512)          2048        dense[0][0]                      
__________________________________________________________________________________________________
input_1 (InputLayer)            [(None, 170, 5)]     0                                            
__________________________________________________________________________________________________
input_2 (InputLayer)            [(None, 12, 2)]      0                                            
__________________________________________________________________________________________________
lambda (Lambda)                 (None, 512)          0           batch_normalization[0][0]        
__________________________________________________________________________________________________
tf.__operators__.getitem (Slici (None, 170, 1)       0           input_1[0][0]                    
__________________________________________________________________________________________________
tf.__operators__.getitem_2 (Sli (None, 12, 1)        0           input_2[0][0]                    
__________________________________________________________________________________________________
dropout (Dropout)               (None, 512)          0           lambda[0][0]                     
__________________________________________________________________________________________________
embedding (Embedding)           (None, 170, 1, 64)   40952256    tf.__operators__.getitem[0][0]   
__________________________________________________________________________________________________
embedding_1 (Embedding)         (None, 12, 1, 64)    2836160     tf.__operators__.getitem_2[0][0] 
__________________________________________________________________________________________________
dense_1 (Dense)                 (None, 256)          131328      dropout[0][0]                    
__________________________________________________________________________________________________
tf.reshape (TFOpLambda)         (None, 170, 64)      0           embedding[0][0]                  
__________________________________________________________________________________________________
tf.__operators__.getitem_1 (Sli (None, 170, 4)       0           input_1[0][0]                    
__________________________________________________________________________________________________
tf.reshape_1 (TFOpLambda)       (None, 12, 64)       0           embedding_1[0][0]                
__________________________________________________________________________________________________
tf.__operators__.getitem_3 (Sli (None, 12, 1)        0           input_2[0][0]                    
__________________________________________________________________________________________________
batch_normalization_1 (BatchNor (None, 256)          1024        dense_1[0][0]                    
__________________________________________________________________________________________________
concatenate (Concatenate)       (None, 170, 68)      0           tf.reshape[0][0]                 
                                                                 tf.__operators__.getitem_1[0][0] 
__________________________________________________________________________________________________
concatenate_2 (Concatenate)     (None, 12, 65)       0           tf.reshape_1[0][0]               
                                                                 tf.__operators__.getitem_3[0][0] 
__________________________________________________________________________________________________
lambda_1 (Lambda)               (None, 256)          0           batch_normalization_1[0][0]      
__________________________________________________________________________________________________
spatial_dropout1d (SpatialDropo (None, 170, 68)      0           concatenate[0][0]                
__________________________________________________________________________________________________
spatial_dropout1d_1 (SpatialDro (None, 12, 65)       0           concatenate_2[0][0]              
__________________________________________________________________________________________________
dropout_1 (Dropout)             (None, 256)          0           lambda_1[0][0]                   
__________________________________________________________________________________________________
bidirectional (Bidirectional)   (None, 170, 256)     201728      spatial_dropout1d[0][0]          
__________________________________________________________________________________________________
bidirectional_3 (Bidirectional) (None, 12, 256)      198656      spatial_dropout1d_1[0][0]        
__________________________________________________________________________________________________
dense_2 (Dense)                 (None, 256)          65792       dropout_1[0][0]                  
__________________________________________________________________________________________________
bidirectional_1 (Bidirectional) (None, 170, 256)     394240      bidirectional[0][0]              
__________________________________________________________________________________________________
bidirectional_4 (Bidirectional) (None, 12, 256)      394240      bidirectional_3[0][0]            
__________________________________________________________________________________________________
batch_normalization_2 (BatchNor (None, 256)          1024        dense_2[0][0]                    
__________________________________________________________________________________________________
bidirectional_2 (Bidirectional) (None, 170, 256)     394240      bidirectional_1[0][0]            
__________________________________________________________________________________________________
bidirectional_5 (Bidirectional) (None, 12, 256)      394240      bidirectional_4[0][0]            
__________________________________________________________________________________________________
lambda_2 (Lambda)               (None, 256)          0           batch_normalization_2[0][0]      
__________________________________________________________________________________________________
input_3 (InputLayer)            [(None, 1)]          0                                            
__________________________________________________________________________________________________
global_average_pooling1d (Globa (None, 256)          0           bidirectional_2[0][0]            
__________________________________________________________________________________________________
global_max_pooling1d (GlobalMax (None, 256)          0           bidirectional_2[0][0]            
__________________________________________________________________________________________________
global_average_pooling1d_1 (Glo (None, 256)          0           bidirectional_5[0][0]            
__________________________________________________________________________________________________
global_max_pooling1d_1 (GlobalM (None, 256)          0           bidirectional_5[0][0]            
__________________________________________________________________________________________________
dropout_2 (Dropout)             (None, 256)          0           lambda_2[0][0]                   
__________________________________________________________________________________________________
embedding_2 (Embedding)         (None, 1, 1)         288         input_3[0][0]                    
__________________________________________________________________________________________________
concatenate_1 (Concatenate)     (None, 512)          0           global_average_pooling1d[0][0]   
                                                                 global_max_pooling1d[0][0]       
__________________________________________________________________________________________________
concatenate_3 (Concatenate)     (None, 512)          0           global_average_pooling1d_1[0][0] 
                                                                 global_max_pooling1d_1[0][0]     
__________________________________________________________________________________________________
dense_3 (Dense)                 (None, 64)           16448       dropout_2[0][0]                  
__________________________________________________________________________________________________
wide_input (InputLayer)         [(None, 4)]          0                                            
__________________________________________________________________________________________________
flatten (Flatten)               (None, 1)            0           embedding_2[0][0]                
__________________________________________________________________________________________________
concatenate_4 (Concatenate)     (None, 1093)         0           concatenate_1[0][0]              
                                                                 concatenate_3[0][0]              
                                                                 dense_3[0][0]                    
                                                                 wide_input[0][0]                 
                                                                 flatten[0][0]                    
__________________________________________________________________________________________________
batch_normalization_3 (BatchNor (None, 1093)         4372        concatenate_4[0][0]              
__________________________________________________________________________________________________
dense_4 (Dense)                 (None, 1024)         1120256     batch_normalization_3[0][0]      
__________________________________________________________________________________________________
dropout_3 (Dropout)             (None, 1024)         0           dense_4[0][0]                    
__________________________________________________________________________________________________
dense_5 (Dense)                 (None, 512)          524800      dropout_3[0][0]                  
__________________________________________________________________________________________________
batch_normalization_4 (BatchNor (None, 512)          2048        dense_5[0][0]                    
__________________________________________________________________________________________________
lambda_3 (Lambda)               (None, 512)          0           batch_normalization_4[0][0]      
__________________________________________________________________________________________________
dropout_4 (Dropout)             (None, 512)          0           lambda_3[0][0]                   
__________________________________________________________________________________________________
dense_6 (Dense)                 (None, 512)          262656      dropout_4[0][0]                  
__________________________________________________________________________________________________
batch_normalization_5 (BatchNor (None, 512)          2048        dense_6[0][0]                    
__________________________________________________________________________________________________
lambda_4 (Lambda)               (None, 512)          0           batch_normalization_5[0][0]      
__________________________________________________________________________________________________
dropout_5 (Dropout)             (None, 512)          0           lambda_4[0][0]                   
__________________________________________________________________________________________________
dense_7 (Dense)                 (None, 1)            513         dropout_5[0][0]                  
==================================================================================================
Total params: 48,035,061
Trainable params: 48,028,779
Non-trainable params: 6,282
__________________________________________________________________________________________________
None
*-*-*-*-*-*-*-*-*-*-*-*-*-*-*-*-*-*-*-*-*-*-*-*-*-*-*-*-*-*-*-*-*-*-*-*-*-*-*-*- MODEL_INIT END
…
